…
{'valid_loss': 3.606, 'loss_diff': 0.0, 'epoch': 15, 'batch': 2, 'embed_loss': -0.012}
{'valid_loss': 3.644, 'loss_diff': 0.0, 'epoch': 15, 'batch': 3, 'embed_loss': -0.007}
{'valid_loss': 3.77, 'loss_diff': 0.0, 'epoch': 15, 'batch': 4, 'embed_loss': -0.008}
{'valid_loss': 3.26, 'loss_diff': 0.0, 'epoch': 15, 'batch': 5, 'embed_loss': 0.018}
{'valid_loss': 3.452, 'loss_diff': 0.0, 'epoch': 15, 'batch': 6, 'embed_loss': 0.008}
BackBoneArchitecture(
  (amp_backbone): DenseNetBackbone(
    (final_activation): Identity()
    (dropout): Dropout(p=0.18, inplace=False)
    (input_norm): Identity()
    (conv1): Sequential(
      (0): Conv2d(1, 64, kernel_size=(7, 7), stride=(2, 2), padding=(3, 3), bias=False)
      (1): BatchNorm2d(64, eps=1e-05, momentum=0.1, affine=True, track_running_stats=True)
      (2): LeakyReLU(negative_slope=0.01)
      (3): MaxPool2d(kernel_size=3, stride=2, padding=1, dilation=1, ceil_mode=False)
    )
    (blocks): ModuleList(
      (0): DenseBlock(
        (layers): ModuleList(
          (0): Sequential(
            (0): BatchNorm2d(64, eps=1e-05, momentum=0.1, affine=True, track_running_stats=True)
            (1): ReLU(inplace=True)
            (2): Conv2d(64, 32, kernel_size=(3, 3), stride=(1, 1), padding=(1, 1), bias=False)
          )
          (1): Sequential(
            (0): BatchNorm2d(96, eps=1e-05, momentum=0.1, affine=True, track_running_stats=True)
            (1): ReLU(inplace=True)
            (2): Conv2d(96, 32, kernel_size=(3, 3), stride=(1, 1), padding=(1, 1), bias=False)
          )
          (2): Sequential(
            (0): BatchNorm2d(128, eps=1e-05, momentum=0.1, affine=True, track_running_stats=True)
            (1): ReLU(inplace=True)
            (2): Conv2d(128, 32, kernel_size=(3, 3), stride=(1, 1), padding=(1, 1), bias=False)
          )
          (3): Sequential(
            (0): BatchNorm2d(160, eps=1e-05, momentum=0.1, affine=True, track_running_stats=True)
            (1): ReLU(inplace=True)
            (2): Conv2d(160, 32, kernel_size=(3, 3), stride=(1, 1), padding=(1, 1), bias=False)
          )
          (4): Sequential(
            (0): BatchNorm2d(192, eps=1e-05, momentum=0.1, affine=True, track_running_stats=True)
            (1): ReLU(inplace=True)
            (2): Conv2d(192, 32, kernel_size=(3, 3), stride=(1, 1), padding=(1, 1), bias=False)
          )
          (5): Sequential(
            (0): BatchNorm2d(224, eps=1e-05, momentum=0.1, affine=True, track_running_stats=True)
            (1): ReLU(inplace=True)
            (2): Conv2d(224, 32, kernel_size=(3, 3), stride=(1, 1), padding=(1, 1), bias=False)
          )
        )
      )
      (1): TransitionLayer(
        (layer): Sequential(
          (0): BatchNorm2d(256, eps=1e-05, momentum=0.1, affine=True, track_running_stats=True)
          (1): ReLU(inplace=True)
          (2): Conv2d(256, 128, kernel_size=(1, 1), stride=(1, 1), bias=False)
          (3): AvgPool2d(kernel_size=2, stride=2, padding=0)
        )
      )
      (2): DenseBlock(
        (layers): ModuleList(
          (0): Sequential(
            (0): BatchNorm2d(128, eps=1e-05, momentum=0.1, affine=True, track_running_stats=True)
            (1): ReLU(inplace=True)
            (2): Conv2d(128, 32, kernel_size=(3, 3), stride=(1, 1), padding=(1, 1), bias=False)
          )
          (1): Sequential(
            (0): BatchNorm2d(160, eps=1e-05, momentum=0.1, affine=True, track_running_stats=True)
            (1): ReLU(inplace=True)
            (2): Conv2d(160, 32, kernel_size=(3, 3), stride=(1, 1), padding=(1, 1), bias=False)
          )
          (2): Sequential(
            (0): BatchNorm2d(192, eps=1e-05, momentum=0.1, affine=True, track_running_stats=True)
            (1): ReLU(inplace=True)
            (2): Conv2d(192, 32, kernel_size=(3, 3), stride=(1, 1), padding=(1, 1), bias=False)
          )
          (3): Sequential(
            (0): BatchNorm2d(224, eps=1e-05, momentum=0.1, affine=True, track_running_stats=True)
            (1): ReLU(inplace=True)
            (2): Conv2d(224, 32, kernel_size=(3, 3), stride=(1, 1), padding=(1, 1), bias=False)
          )
          (4): Sequential(
            (0): BatchNorm2d(256, eps=1e-05, momentum=0.1, affine=True, track_running_stats=True)
            (1): ReLU(inplace=True)
            (2): Conv2d(256, 32, kernel_size=(3, 3), stride=(1, 1), padding=(1, 1), bias=False)
          )
          (5): Sequential(
            (0): BatchNorm2d(288, eps=1e-05, momentum=0.1, affine=True, track_running_stats=True)
            (1): ReLU(inplace=True)
            (2): Conv2d(288, 32, kernel_size=(3, 3), stride=(1, 1), padding=(1, 1), bias=False)
          )
          (6): Sequential(
            (0): BatchNorm2d(320, eps=1e-05, momentum=0.1, affine=True, track_running_stats=True)
            (1): ReLU(inplace=True)
            (2): Conv2d(320, 32, kernel_size=(3, 3), stride=(1, 1), padding=(1, 1), bias=False)
          )
          (7): Sequential(
            (0): BatchNorm2d(352, eps=1e-05, momentum=0.1, affine=True, track_running_stats=True)
            (1): ReLU(inplace=True)
            (2): Conv2d(352, 32, kernel_size=(3, 3), stride=(1, 1), padding=(1, 1), bias=False)
          )
          (8): Sequential(
            (0): BatchNorm2d(384, eps=1e-05, momentum=0.1, affine=True, track_running_stats=True)
            (1): ReLU(inplace=True)
            (2): Conv2d(384, 32, kernel_size=(3, 3), stride=(1, 1), padding=(1, 1), bias=False)
          )
          (9): Sequential(
            (0): BatchNorm2d(416, eps=1e-05, momentum=0.1, affine=True, track_running_stats=True)
            (1): ReLU(inplace=True)
            (2): Conv2d(416, 32, kernel_size=(3, 3), stride=(1, 1), padding=(1, 1), bias=False)
          )
          (10): Sequential(
            (0): BatchNorm2d(448, eps=1e-05, momentum=0.1, affine=True, track_running_stats=True)
            (1): ReLU(inplace=True)
            (2): Conv2d(448, 32, kernel_size=(3, 3), stride=(1, 1), padding=(1, 1), bias=False)
          )
          (11): Sequential(
            (0): BatchNorm2d(480, eps=1e-05, momentum=0.1, affine=True, track_running_stats=True)
            (1): ReLU(inplace=True)
            (2): Conv2d(480, 32, kernel_size=(3, 3), stride=(1, 1), padding=(1, 1), bias=False)
          )
        )
      )
      (3): TransitionLayer(
        (layer): Sequential(
          (0): BatchNorm2d(512, eps=1e-05, momentum=0.1, affine=True, track_running_stats=True)
          (1): ReLU(inplace=True)
          (2): Conv2d(512, 256, kernel_size=(1, 1), stride=(1, 1), bias=False)
          (3): AvgPool2d(kernel_size=2, stride=2, padding=0)
        )
      )
      (4): DenseBlock(
        (layers): ModuleList(
          (0): Sequential(
            (0): BatchNorm2d(256, eps=1e-05, momentum=0.1, affine=True, track_running_stats=True)
            (1): ReLU(inplace=True)
            (2): Conv2d(256, 32, kernel_size=(3, 3), stride=(1, 1), padding=(1, 1), bias=False)
          )
          (1): Sequential(
            (0): BatchNorm2d(288, eps=1e-05, momentum=0.1, affine=True, track_running_stats=True)
            (1): ReLU(inplace=True)
            (2): Conv2d(288, 32, kernel_size=(3, 3), stride=(1, 1), padding=(1, 1), bias=False)
          )
          (2): Sequential(
            (0): BatchNorm2d(320, eps=1e-05, momentum=0.1, affine=True, track_running_stats=True)
            (1): ReLU(inplace=True)
            (2): Conv2d(320, 32, kernel_size=(3, 3), stride=(1, 1), padding=(1, 1), bias=False)
          )
          (3): Sequential(
            (0): BatchNorm2d(352, eps=1e-05, momentum=0.1, affine=True, track_running_stats=True)
            (1): ReLU(inplace=True)
            (2): Conv2d(352, 32, kernel_size=(3, 3), stride=(1, 1), padding=(1, 1), bias=False)
          )
          (4): Sequential(
            (0): BatchNorm2d(384, eps=1e-05, momentum=0.1, affine=True, track_running_stats=True)
            (1): ReLU(inplace=True)
            (2): Conv2d(384, 32, kernel_size=(3, 3), stride=(1, 1), padding=(1, 1), bias=False)
          )
          (5): Sequential(
            (0): BatchNorm2d(416, eps=1e-05, momentum=0.1, affine=True, track_running_stats=True)
            (1): ReLU(inplace=True)
            (2): Conv2d(416, 32, kernel_size=(3, 3), stride=(1, 1), padding=(1, 1), bias=False)
          )
          (6): Sequential(
            (0): BatchNorm2d(448, eps=1e-05, momentum=0.1, affine=True, track_running_stats=True)
            (1): ReLU(inplace=True)
            (2): Conv2d(448, 32, kernel_size=(3, 3), stride=(1, 1), padding=(1, 1), bias=False)
          )
          (7): Sequential(
            (0): BatchNorm2d(480, eps=1e-05, momentum=0.1, affine=True, track_running_stats=True)
            (1): ReLU(inplace=True)
            (2): Conv2d(480, 32, kernel_size=(3, 3), stride=(1, 1), padding=(1, 1), bias=False)
          )
          (8): Sequential(
            (0): BatchNorm2d(512, eps=1e-05, momentum=0.1, affine=True, track_running_stats=True)
            (1): ReLU(inplace=True)
            (2): Conv2d(512, 32, kernel_size=(3, 3), stride=(1, 1), padding=(1, 1), bias=False)
          )
          (9): Sequential(
            (0): BatchNorm2d(544, eps=1e-05, momentum=0.1, affine=True, track_running_stats=True)
            (1): ReLU(inplace=True)
            (2): Conv2d(544, 32, kernel_size=(3, 3), stride=(1, 1), padding=(1, 1), bias=False)
          )
          (10): Sequential(
            (0): BatchNorm2d(576, eps=1e-05, momentum=0.1, affine=True, track_running_stats=True)
            (1): ReLU(inplace=True)
            (2): Conv2d(576, 32, kernel_size=(3, 3), stride=(1, 1), padding=(1, 1), bias=False)
          )
          (11): Sequential(
            (0): BatchNorm2d(608, eps=1e-05, momentum=0.1, affine=True, track_running_stats=True)
            (1): ReLU(inplace=True)
            (2): Conv2d(608, 32, kernel_size=(3, 3), stride=(1, 1), padding=(1, 1), bias=False)
          )
          (12): Sequential(
            (0): BatchNorm2d(640, eps=1e-05, momentum=0.1, affine=True, track_running_stats=True)
            (1): ReLU(inplace=True)
            (2): Conv2d(640, 32, kernel_size=(3, 3), stride=(1, 1), padding=(1, 1), bias=False)
          )
          (13): Sequential(
            (0): BatchNorm2d(672, eps=1e-05, momentum=0.1, affine=True, track_running_stats=True)
            (1): ReLU(inplace=True)
            (2): Conv2d(672, 32, kernel_size=(3, 3), stride=(1, 1), padding=(1, 1), bias=False)
          )
          (14): Sequential(
            (0): BatchNorm2d(704, eps=1e-05, momentum=0.1, affine=True, track_running_stats=True)
            (1): ReLU(inplace=True)
            (2): Conv2d(704, 32, kernel_size=(3, 3), stride=(1, 1), padding=(1, 1), bias=False)
          )
          (15): Sequential(
            (0): BatchNorm2d(736, eps=1e-05, momentum=0.1, affine=True, track_running_stats=True)
            (1): ReLU(inplace=True)
            (2): Conv2d(736, 32, kernel_size=(3, 3), stride=(1, 1), padding=(1, 1), bias=False)
          )
          (16): Sequential(
            (0): BatchNorm2d(768, eps=1e-05, momentum=0.1, affine=True, track_running_stats=True)
            (1): ReLU(inplace=True)
            (2): Conv2d(768, 32, kernel_size=(3, 3), stride=(1, 1), padding=(1, 1), bias=False)
          )
          (17): Sequential(
            (0): BatchNorm2d(800, eps=1e-05, momentum=0.1, affine=True, track_running_stats=True)
            (1): ReLU(inplace=True)
            (2): Conv2d(800, 32, kernel_size=(3, 3), stride=(1, 1), padding=(1, 1), bias=False)
          )
          (18): Sequential(
            (0): BatchNorm2d(832, eps=1e-05, momentum=0.1, affine=True, track_running_stats=True)
            (1): ReLU(inplace=True)
            (2): Conv2d(832, 32, kernel_size=(3, 3), stride=(1, 1), padding=(1, 1), bias=False)
          )
          (19): Sequential(
            (0): BatchNorm2d(864, eps=1e-05, momentum=0.1, affine=True, track_running_stats=True)
            (1): ReLU(inplace=True)
            (2): Conv2d(864, 32, kernel_size=(3, 3), stride=(1, 1), padding=(1, 1), bias=False)
          )
          (20): Sequential(
            (0): BatchNorm2d(896, eps=1e-05, momentum=0.1, affine=True, track_running_stats=True)
            (1): ReLU(inplace=True)
            (2): Conv2d(896, 32, kernel_size=(3, 3), stride=(1, 1), padding=(1, 1), bias=False)
          )
          (21): Sequential(
            (0): BatchNorm2d(928, eps=1e-05, momentum=0.1, affine=True, track_running_stats=True)
            (1): ReLU(inplace=True)
            (2): Conv2d(928, 32, kernel_size=(3, 3), stride=(1, 1), padding=(1, 1), bias=False)
          )
          (22): Sequential(
            (0): BatchNorm2d(960, eps=1e-05, momentum=0.1, affine=True, track_running_stats=True)
            (1): ReLU(inplace=True)
            (2): Conv2d(960, 32, kernel_size=(3, 3), stride=(1, 1), padding=(1, 1), bias=False)
          )
          (23): Sequential(
            (0): BatchNorm2d(992, eps=1e-05, momentum=0.1, affine=True, track_running_stats=True)
            (1): ReLU(inplace=True)
            (2): Conv2d(992, 32, kernel_size=(3, 3), stride=(1, 1), padding=(1, 1), bias=False)
          )
        )
      )
    )
    (global_pool): AdaptiveAvgPool2d(output_size=(6, 6))
    (fc_latent): Linear(in_features=36864, out_features=60, bias=True)
  )
  (phase_backbone): DenseNetBackbone(
    (final_activation): Identity()
    (dropout): Dropout(p=0.18, inplace=False)
    (input_norm): Identity()
    (conv1): Sequential(
      (0): Conv2d(1, 64, kernel_size=(7, 7), stride=(2, 2), padding=(3, 3), bias=False)
      (1): BatchNorm2d(64, eps=1e-05, momentum=0.1, affine=True, track_running_stats=True)
      (2): LeakyReLU(negative_slope=0.01)
      (3): MaxPool2d(kernel_size=3, stride=2, padding=1, dilation=1, ceil_mode=False)
    )
    (blocks): ModuleList(
      (0): DenseBlock(
        (layers): ModuleList(
          (0): Sequential(
            (0): BatchNorm2d(64, eps=1e-05, momentum=0.1, affine=True, track_running_stats=True)
            (1): ReLU(inplace=True)
            (2): Conv2d(64, 32, kernel_size=(3, 3), stride=(1, 1), padding=(1, 1), bias=False)
          )
          (1): Sequential(
            (0): BatchNorm2d(96, eps=1e-05, momentum=0.1, affine=True, track_running_stats=True)
            (1): ReLU(inplace=True)
            (2): Conv2d(96, 32, kernel_size=(3, 3), stride=(1, 1), padding=(1, 1), bias=False)
          )
          (2): Sequential(
            (0): BatchNorm2d(128, eps=1e-05, momentum=0.1, affine=True, track_running_stats=True)
            (1): ReLU(inplace=True)
            (2): Conv2d(128, 32, kernel_size=(3, 3), stride=(1, 1), padding=(1, 1), bias=False)
          )
          (3): Sequential(
            (0): BatchNorm2d(160, eps=1e-05, momentum=0.1, affine=True, track_running_stats=True)
            (1): ReLU(inplace=True)
            (2): Conv2d(160, 32, kernel_size=(3, 3), stride=(1, 1), padding=(1, 1), bias=False)
          )
          (4): Sequential(
            (0): BatchNorm2d(192, eps=1e-05, momentum=0.1, affine=True, track_running_stats=True)
            (1): ReLU(inplace=True)
            (2): Conv2d(192, 32, kernel_size=(3, 3), stride=(1, 1), padding=(1, 1), bias=False)
          )
          (5): Sequential(
            (0): BatchNorm2d(224, eps=1e-05, momentum=0.1, affine=True, track_running_stats=True)
            (1): ReLU(inplace=True)
            (2): Conv2d(224, 32, kernel_size=(3, 3), stride=(1, 1), padding=(1, 1), bias=False)
          )
        )
      )
      (1): TransitionLayer(
        (layer): Sequential(
          (0): BatchNorm2d(256, eps=1e-05, momentum=0.1, affine=True, track_running_stats=True)
          (1): ReLU(inplace=True)
          (2): Conv2d(256, 128, kernel_size=(1, 1), stride=(1, 1), bias=False)
          (3): AvgPool2d(kernel_size=2, stride=2, padding=0)
        )
      )
      (2): DenseBlock(
        (layers): ModuleList(
          (0): Sequential(
            (0): BatchNorm2d(128, eps=1e-05, momentum=0.1, affine=True, track_running_stats=True)
            (1): ReLU(inplace=True)
            (2): Conv2d(128, 32, kernel_size=(3, 3), stride=(1, 1), padding=(1, 1), bias=False)
          )
          (1): Sequential(
            (0): BatchNorm2d(160, eps=1e-05, momentum=0.1, affine=True, track_running_stats=True)
            (1): ReLU(inplace=True)
            (2): Conv2d(160, 32, kernel_size=(3, 3), stride=(1, 1), padding=(1, 1), bias=False)
          )
          (2): Sequential(
            (0): BatchNorm2d(192, eps=1e-05, momentum=0.1, affine=True, track_running_stats=True)
            (1): ReLU(inplace=True)
            (2): Conv2d(192, 32, kernel_size=(3, 3), stride=(1, 1), padding=(1, 1), bias=False)
          )
          (3): Sequential(
            (0): BatchNorm2d(224, eps=1e-05, momentum=0.1, affine=True, track_running_stats=True)
            (1): ReLU(inplace=True)
            (2): Conv2d(224, 32, kernel_size=(3, 3), stride=(1, 1), padding=(1, 1), bias=False)
          )
          (4): Sequential(
            (0): BatchNorm2d(256, eps=1e-05, momentum=0.1, affine=True, track_running_stats=True)
            (1): ReLU(inplace=True)
            (2): Conv2d(256, 32, kernel_size=(3, 3), stride=(1, 1), padding=(1, 1), bias=False)
          )
          (5): Sequential(
            (0): BatchNorm2d(288, eps=1e-05, momentum=0.1, affine=True, track_running_stats=True)
            (1): ReLU(inplace=True)
            (2): Conv2d(288, 32, kernel_size=(3, 3), stride=(1, 1), padding=(1, 1), bias=False)
          )
          (6): Sequential(
            (0): BatchNorm2d(320, eps=1e-05, momentum=0.1, affine=True, track_running_stats=True)
            (1): ReLU(inplace=True)
            (2): Conv2d(320, 32, kernel_size=(3, 3), stride=(1, 1), padding=(1, 1), bias=False)
          )
          (7): Sequential(
            (0): BatchNorm2d(352, eps=1e-05, momentum=0.1, affine=True, track_running_stats=True)
            (1): ReLU(inplace=True)
            (2): Conv2d(352, 32, kernel_size=(3, 3), stride=(1, 1), padding=(1, 1), bias=False)
          )
          (8): Sequential(
            (0): BatchNorm2d(384, eps=1e-05, momentum=0.1, affine=True, track_running_stats=True)
            (1): ReLU(inplace=True)
            (2): Conv2d(384, 32, kernel_size=(3, 3), stride=(1, 1), padding=(1, 1), bias=False)
          )
          (9): Sequential(
            (0): BatchNorm2d(416, eps=1e-05, momentum=0.1, affine=True, track_running_stats=True)
            (1): ReLU(inplace=True)
            (2): Conv2d(416, 32, kernel_size=(3, 3), stride=(1, 1), padding=(1, 1), bias=False)
          )
          (10): Sequential(
            (0): BatchNorm2d(448, eps=1e-05, momentum=0.1, affine=True, track_running_stats=True)
            (1): ReLU(inplace=True)
            (2): Conv2d(448, 32, kernel_size=(3, 3), stride=(1, 1), padding=(1, 1), bias=False)
          )
          (11): Sequential(
            (0): BatchNorm2d(480, eps=1e-05, momentum=0.1, affine=True, track_running_stats=True)
            (1): ReLU(inplace=True)
            (2): Conv2d(480, 32, kernel_size=(3, 3), stride=(1, 1), padding=(1, 1), bias=False)
          )
        )
      )
      (3): TransitionLayer(
        (layer): Sequential(
          (0): BatchNorm2d(512, eps=1e-05, momentum=0.1, affine=True, track_running_stats=True)
          (1): ReLU(inplace=True)
          (2): Conv2d(512, 256, kernel_size=(1, 1), stride=(1, 1), bias=False)
          (3): AvgPool2d(kernel_size=2, stride=2, padding=0)
        )
      )
      (4): DenseBlock(
        (layers): ModuleList(
          (0): Sequential(
            (0): BatchNorm2d(256, eps=1e-05, momentum=0.1, affine=True, track_running_stats=True)
            (1): ReLU(inplace=True)
            (2): Conv2d(256, 32, kernel_size=(3, 3), stride=(1, 1), padding=(1, 1), bias=False)
          )
          (1): Sequential(
            (0): BatchNorm2d(288, eps=1e-05, momentum=0.1, affine=True, track_running_stats=True)
            (1): ReLU(inplace=True)
            (2): Conv2d(288, 32, kernel_size=(3, 3), stride=(1, 1), padding=(1, 1), bias=False)
          )
          (2): Sequential(
            (0): BatchNorm2d(320, eps=1e-05, momentum=0.1, affine=True, track_running_stats=True)
            (1): ReLU(inplace=True)
            (2): Conv2d(320, 32, kernel_size=(3, 3), stride=(1, 1), padding=(1, 1), bias=False)
          )
          (3): Sequential(
            (0): BatchNorm2d(352, eps=1e-05, momentum=0.1, affine=True, track_running_stats=True)
            (1): ReLU(inplace=True)
            (2): Conv2d(352, 32, kernel_size=(3, 3), stride=(1, 1), padding=(1, 1), bias=False)
          )
          (4): Sequential(
            (0): BatchNorm2d(384, eps=1e-05, momentum=0.1, affine=True, track_running_stats=True)
            (1): ReLU(inplace=True)
            (2): Conv2d(384, 32, kernel_size=(3, 3), stride=(1, 1), padding=(1, 1), bias=False)
          )
          (5): Sequential(
            (0): BatchNorm2d(416, eps=1e-05, momentum=0.1, affine=True, track_running_stats=True)
            (1): ReLU(inplace=True)
            (2): Conv2d(416, 32, kernel_size=(3, 3), stride=(1, 1), padding=(1, 1), bias=False)
          )
          (6): Sequential(
            (0): BatchNorm2d(448, eps=1e-05, momentum=0.1, affine=True, track_running_stats=True)
            (1): ReLU(inplace=True)
            (2): Conv2d(448, 32, kernel_size=(3, 3), stride=(1, 1), padding=(1, 1), bias=False)
          )
          (7): Sequential(
            (0): BatchNorm2d(480, eps=1e-05, momentum=0.1, affine=True, track_running_stats=True)
            (1): ReLU(inplace=True)
            (2): Conv2d(480, 32, kernel_size=(3, 3), stride=(1, 1), padding=(1, 1), bias=False)
          )
          (8): Sequential(
            (0): BatchNorm2d(512, eps=1e-05, momentum=0.1, affine=True, track_running_stats=True)
            (1): ReLU(inplace=True)
            (2): Conv2d(512, 32, kernel_size=(3, 3), stride=(1, 1), padding=(1, 1), bias=False)
          )
          (9): Sequential(
            (0): BatchNorm2d(544, eps=1e-05, momentum=0.1, affine=True, track_running_stats=True)
            (1): ReLU(inplace=True)
            (2): Conv2d(544, 32, kernel_size=(3, 3), stride=(1, 1), padding=(1, 1), bias=False)
          )
          (10): Sequential(
            (0): BatchNorm2d(576, eps=1e-05, momentum=0.1, affine=True, track_running_stats=True)
            (1): ReLU(inplace=True)
            (2): Conv2d(576, 32, kernel_size=(3, 3), stride=(1, 1), padding=(1, 1), bias=False)
          )
          (11): Sequential(
            (0): BatchNorm2d(608, eps=1e-05, momentum=0.1, affine=True, track_running_stats=True)
            (1): ReLU(inplace=True)
            (2): Conv2d(608, 32, kernel_size=(3, 3), stride=(1, 1), padding=(1, 1), bias=False)
          )
          (12): Sequential(
            (0): BatchNorm2d(640, eps=1e-05, momentum=0.1, affine=True, track_running_stats=True)
            (1): ReLU(inplace=True)
            (2): Conv2d(640, 32, kernel_size=(3, 3), stride=(1, 1), padding=(1, 1), bias=False)
          )
          (13): Sequential(
            (0): BatchNorm2d(672, eps=1e-05, momentum=0.1, affine=True, track_running_stats=True)
            (1): ReLU(inplace=True)
            (2): Conv2d(672, 32, kernel_size=(3, 3), stride=(1, 1), padding=(1, 1), bias=False)
          )
          (14): Sequential(
            (0): BatchNorm2d(704, eps=1e-05, momentum=0.1, affine=True, track_running_stats=True)
            (1): ReLU(inplace=True)
            (2): Conv2d(704, 32, kernel_size=(3, 3), stride=(1, 1), padding=(1, 1), bias=False)
          )
          (15): Sequential(
            (0): BatchNorm2d(736, eps=1e-05, momentum=0.1, affine=True, track_running_stats=True)
            (1): ReLU(inplace=True)
            (2): Conv2d(736, 32, kernel_size=(3, 3), stride=(1, 1), padding=(1, 1), bias=False)
          )
          (16): Sequential(
            (0): BatchNorm2d(768, eps=1e-05, momentum=0.1, affine=True, track_running_stats=True)
            (1): ReLU(inplace=True)
            (2): Conv2d(768, 32, kernel_size=(3, 3), stride=(1, 1), padding=(1, 1), bias=False)
          )
          (17): Sequential(
            (0): BatchNorm2d(800, eps=1e-05, momentum=0.1, affine=True, track_running_stats=True)
            (1): ReLU(inplace=True)
            (2): Conv2d(800, 32, kernel_size=(3, 3), stride=(1, 1), padding=(1, 1), bias=False)
          )
          (18): Sequential(
            (0): BatchNorm2d(832, eps=1e-05, momentum=0.1, affine=True, track_running_stats=True)
            (1): ReLU(inplace=True)
            (2): Conv2d(832, 32, kernel_size=(3, 3), stride=(1, 1), padding=(1, 1), bias=False)
          )
          (19): Sequential(
            (0): BatchNorm2d(864, eps=1e-05, momentum=0.1, affine=True, track_running_stats=True)
            (1): ReLU(inplace=True)
            (2): Conv2d(864, 32, kernel_size=(3, 3), stride=(1, 1), padding=(1, 1), bias=False)
          )
          (20): Sequential(
            (0): BatchNorm2d(896, eps=1e-05, momentum=0.1, affine=True, track_running_stats=True)
            (1): ReLU(inplace=True)
            (2): Conv2d(896, 32, kernel_size=(3, 3), stride=(1, 1), padding=(1, 1), bias=False)
          )
          (21): Sequential(
            (0): BatchNorm2d(928, eps=1e-05, momentum=0.1, affine=True, track_running_stats=True)
            (1): ReLU(inplace=True)
            (2): Conv2d(928, 32, kernel_size=(3, 3), stride=(1, 1), padding=(1, 1), bias=False)
          )
          (22): Sequential(
            (0): BatchNorm2d(960, eps=1e-05, momentum=0.1, affine=True, track_running_stats=True)
            (1): ReLU(inplace=True)
            (2): Conv2d(960, 32, kernel_size=(3, 3), stride=(1, 1), padding=(1, 1), bias=False)
          )
          (23): Sequential(
            (0): BatchNorm2d(992, eps=1e-05, momentum=0.1, affine=True, track_running_stats=True)
            (1): ReLU(inplace=True)
            (2): Conv2d(992, 32, kernel_size=(3, 3), stride=(1, 1), padding=(1, 1), bias=False)
          )
        )
      )
    )
    (global_pool): AdaptiveAvgPool2d(output_size=(6, 6))
    (fc_latent): Linear(in_features=36864, out_features=60, bias=True)
  )
)
